model_state_dict.pt (torch, 578446 bytes, 13 tensors)

conv1.weight f4 [10, 1, 3, 3]
0.0011560791 -0.010248662 0.009475953 -0.008851695 0.023755759 -0.012681218 0.008202243 -0.014384942
0.0040751584 -0.03273549 0.050402436 -0.023130262 0.04735885 -0.08141318 0.040869914 -0.025511896
0.04043939 -0.02110896 0.0045792186 -0.042566467 0.038111813 0.01438713 0.056823518 -0.07381469
-0.019983634 -0.012738778 0.03103807 0.08814388 -0.07307988 -0.05192515 -0.012902946 -0.067160234
0.16029055 -0.0524623 0.110707656 -0.10257657 0.019577213 -0.034222312 0.013861894 -0.047053806
0.07527441 -0.025744779 0.028495088 -0.045286916 0.015188531 0.04561371 -0.08445555 0.051180325
-0.13283676 -0.01607987 0.046438627 -0.06947277 0.10999054 -0.030958392 -0.0032255526 0.0112287905
-0.0071646576 0.00429224 -0.011883634 0.006434936 0.0020755131 0.0075142565 -0.0037010359 0.025831
-0.07007381 0.034697752 -0.06434812 0.13926582 -0.07845274 0.03631681 -0.079829365 0.048479147
-0.008963053 0.013198931 0.0003705429 0.032440558 -0.050007265 0.017923374 -0.017215112 0.03625395
-0.01794994 -0.03570762 0.010120994 0.028406773 0.059174974 0.021414807 -0.07225574 -0.01583294
-0.04599281 0.050931808
00000000: 9487 973a 01ea 27bc 0741 1b3c b306 11bc
00000010: 709b c23c e2c4 4fbc b362 063c d2ae 6bbc
00000020: e888 853b a615 06bd c972 4e3d ad7b bdbc
00000030: 5afb 413d f4bb a6bd 3667 273d 53fe d0bc
00000040: c6a3 253d b3ec acbc 450d 963b 2d5a 2ebd
00000050: 221b 1c3d ffb7 6b3c c7bf 683d 282c 97bd
00000060: b8b4 a3bc 4fb6 50bc 8d43 fe3c c784 b43d
00000070: e7aa 95bd 77af 54bd e166 53bc 4e8b 89bd
00000080: 3523 243e b5e2 56bd b2ba e23d aa13 d2bd
00000090: 6460 a03c b22c 0cbd ff1c 633c 7ebb 40bd
000000a0: 7829 9a3d b7e6 d2bc 886e e93c c67e 39bd
000000b0: 51d9 783c 71d5 3a3d 08f7 acbd 76a2 513d
000000c0: 5c06 08be eeb9 83bc 6e36 3e3d bd47 8ebd
000000d0: b842 e13d 749c fdbc cb63 53bb f6f8 373c
000000e0: 81c5 eabb eba5 8c3b 93b3 42bc 28dc d23b
000000f0: 5505 083b 273a f63b 148d 72bb 899b d33c
00000100: dc82 8fbd 3b1f 0e3d f2c8 83bd b39b 0e3e
00000110: d5ab a0bd efc0 143d 947d a3bd 1292 463d
00000120: c5d9 12bc 5440 583c 6d45 c239 64e0 043d
00000130: 6bd4 4cbd 0ad4 923c b506 8dbc 067f 143d
00000140: c10b 93bc 2742 12bd 87d2 253c 52b5 e83c
00000150: 7561 723d 1b6e af3c d1fa 93bd 15b4 81bc
00000160: f562 3cbd df9d 503d

conv1.bias f4 [10]
-0.011924353 0.24945827 0.18942346 -0.2749073 0.055333573 1.2580616 -0.092050284 -0.07592641
-0.1644437 -0.31881407
00000000: 5d5e 43bc fd71 7f3e 39f8 413e a6c0 8cbe
00000010: 75a5 623d 2a08 a13f dc84 bcbd 4e7f 9bbd
00000020: ee63 28be 993b a3be

conv2.weight f4 [10, 10, 3, 3]
-0.0068274094 0.013696764 -0.009269569 -0.016902827 0.0044709346 0.021876562 0.014888623 0.0024439066
-0.03407669 0.041453496 -0.082447544 0.015352954 -0.031095324 0.032628793 -0.002571726 -0.010963284
0.04737619 -0.06843893 0.03366378 -0.010038479 -0.02893741 -0.02953017 0.0062326505 0.019052796
-0.009284389 0.018055685 -0.015637206 0.056148227 3.0673837e-05 -0.012409757 0.034686577 -0.015355453
0.048965707 -0.050521158 -0.020693572 -0.01338477 0.00842143 0.0064392895 -0.021546448 -0.03223601
0.021953214 0.012237225 0.009678567 0.007365367 -0.026638215 -0.012855553 -0.08460847 -0.008635761
0.00038176184 -0.0044015553 -0.009539659 0.012627723 -0.02136392 -0.0063980557 -0.0017598287 0.07404782
-0.047874406 -0.027744478 0.000106576765 0.020246992 0.006849945 -0.015527451 0.026911192 0.019837458
-0.010575632 0.05180857 -0.027465183 0.0059771645 -0.03738443 0.015815947 -0.00039946023 0.024412595
0.030862596 0.04568189 -0.06688869 -0.09987147 0.06704499 0.05198738 0.044820715 -0.053489238
0.009863982 -0.005375691 -0.05006141 0.034671016 0.042655654 -0.0075170593 0.06809592 -0.037101135
0.03195909 -0.01846088 -0.08997941 0.02586486 0.0072554015 0.036079954 -0.031624958 0.04020984
0.06379363 -0.032244787 -0.041456502 0.051903203 -0.005581005 -0.00036062681 0.037823323 -0.13544492
0.042294536 -0.017376503 0.0399129 0.012713708 0.043186482 -0.011050635 -0.010140582 -0.054744072
-0.013707278 0.03639101 -0.011735743 0.03368113 2.5586012e-06 -0.032387126 0.0057877246 -0.020957153
0.06230371 -0.026784213 0.03971555 -0.00094829034 0.0065383757 -0.02087848 0.033205777 -0.051170304
0.013053038 0.020440713 -0.04836765 0.03286345 -0.018233394 0.04423813 -0.029992115 -0.006318851
0.003720929 -0.05678529 0.022264661 -0.019432072 0.09816776 -0.012382947 0.011612391 -0.047382455
0.06303529 -0.035389792 -0.046762034 -0.01751663 0.0073238434 0.0001382718 0.01906312 -0.060443547
0.04576018 0.029948842 -0.051363412 0.03134081 0.01778274 -0.014117579 0.02576959 -0.029997379
0.023417596 -0.0273428 -0.023236293 -0.04455166 0.072108045 -0.05554893 0.086987995 -0.038605794
0.025673395 0.033842124 -0.05233694 -0.070772655 -0.036085263 -0.018906333 0.095336474 -0.0111797005
0.06254029 -0.008101711 0.016527774 -0.03793965 0.004317693 0.00085974287 0.008140188 -0.012297818
-0.04536605 0.041352633 0.028319808 -0.0066951606 -0.0036566863 0.01257256 0.011526483 -0.020444687
-0.09268702 0.08507619 4.3510896e-05 0.045255296 0.032641586 -0.07416325 0.012640372 0.023295518
-0.026236314 -0.039167456 -0.02181337 -0.0022568668 0.025827311 -0.039836995 0.053503796 -0.015721405
-0.008703886 -0.0031934723 -0.027717687 0.0625361 -0.022621527 0.010237371 -0.010844067 0.015104567
0.02773485 -0.086251564 0.01925714 -0.006590491 -0.0178701 0.07266079 -0.012058521 0.062424436
-0.07958652 -0.0051332144 -0.0011991246 -0.012112114 -0.0077034407 0.012567665 0.025343392 0.0069801
-0.00043362236 -0.016738318 0.07368221 -0.122187614 0.06802974 -0.10675236 0.092966095 -0.051570076
0.007292176 0.052614648 -0.044467457 -0.030498454 0.015014532 0.040366232 -0.047315937 0.016215077
-0.043760233 0.049234606 -0.05991908 0.059437837 0.06604595 -0.05609383 -0.032079436 0.0029604302
00000000: 76b8 dfbb 6468 603c 64df 17bc cc77 8abc
00000010: eb80 923b 7a36 b33c 69ef 733c f329 203b
00000020: 0094 0bbd 24cb 293d 42da a8bd f58a 7b3c
00000030: 9fbb febc c5a5 053d 678a 28bb 599f 33bc
00000040: 890d 423d b629 8cbd 08e3 093d 6f78 24bc
00000050: 260e edbc 41e9 f1bc 433b cc3b 9c14 9c3c
00000060: 8d1d 18bc 84e9 933c 9919 80bc affb 653d
00000070: c8a7 0038 4b52 4bbc 8313 0e3d 7095 7bbc
00000080: 4490 483d 46ef 4ebd 9185 a9bc cb4b 5bbc
00000090: 0afa 093c ad00 d33b 2d82 b0bc e809 04bd
000000a0: 3ad7 b33c a47e 483c da92 1e3c 2d59 f13b
000000b0: 6338 dabc 19a0 52bc 3547 adbd 027d 0dbc
000000c0: 3527 c839 ec3a 90bb 3b4c 1cbc 82e4 4e3c
000000d0: 6303 afbc c8a6 d1bb 0daa e6ba 62a6 973d
000000e0: f417 44bd 6348 e3bc f781 df38 05dd a53c
000000f0: 8175 e03b da66 7ebc dc74 dc3c 2a82 a23c
00000100: 6a45 2dbc 3935 543d aafe e0bc 17dc c33b
00000110: 6b20 19bd 7290 813c a56e d1b9 ecfc c73c
00000120: 8ed3 fc3c ef1c 3b3d f0fc 88bd 6a89 ccbd
00000130: e24e 893d b8f0 543d ed95 373d 8817 5bbd
00000140: 8a9c 213c 9126 b0bb 310d 4dbd 3203 0e3d
00000150: b2b7 2e3d aa51 f6bb e075 8b3d 5cf7 17bd
00000160: 89e7 023d 453b 97bc 2047 b8bd 8be2 d33c
00000170: b8be ed3b 93c8 133d 2c89 01bd 13b3 243d
00000180: 3ca6 823d 1c13 04bd 4bce 29bd 7498 543d
00000190: dde0 b6bb 8312 bdb9 a1ec 1a3d 13b2 0abe
000001a0: 093d 2d3d 2b59 8ebc b67b 233d 284d 503c
000001b0: 4fe4 303d b90d 35bc af24 26bc 523b 60bd
000001c0: 7e94 60bc bd0e 153d 4647 40bc 39f5 093d
000001d0: 6fb4 2b36 5da8 04bd f4a6 bd3b 56ae abbc
000001e0: 2d32 7f3d 916a dbbc c6ac 223d b096 78ba
000001f0: df3f d63b 5909 abbc c802 083d f497 51bd
00000200: 69dc 553c 4873 a73c 281d 46bd d39b 063d
00000210: 335e 95bc 0b33 353d 06b2 f5bc 5d0e cfbb
00000220: d4da 733b b197 68bd 6164 b63c 0230 9fbc
00000230: 2e0c c93d d8e1 4abc e641 3e3c 1b14 42bd
00000240: a518 813d e3f4 10bd 8c89 3fbd 097f 8fbc
00000250: dafc ef3b 0efd 1039 432a 9c3c a793 77bd
00000260: 076f 3b3d 4657 f53c 7162 52bd 395f 003d
00000270: 1cad 913c 6b4d 67bc bf1a d33c 10bd f5bc
00000280: 42d6 bf3c 02fe dfbc 0a5a bebc cd7b 36bd
00000290: 62ad 933d 4687 63bd c326 b23d 1c21 1ebd
000002a0: 0351 d23c 0a9e 0a3d 425f 56bd 41f1 90bd
000002b0: 24ce 13bd 74e1 9abc c53f c33d 102b 37bc
000002c0: 2015 803d 0abd 04bc 4165 873c 9b66 1bbd
000002d0: 6f7b 8d3b 5e60 613a 6c5e 053c ca7c 49bc
000002e0: c0d1 39bd 6161 293d f1fe e73c 1463 dbbb
000002f0: 04a5 6fbb 24fd 4d3c 93d9 3c3c 9e7b a7bc
00000300: b1d2 bdbd 6d3c ae3d 787f 3638 9e5d 393d
00000310: 2fb3 053d e7e2 97bd 9019 4f3c 3ed6 be3c
00000320: 8aed d6bc 0e6e 20bd f4b1 b2bc f1e7 13bb
00000330: cc93 d33c 1e2c 23bd cc26 5b3d 2dca 80bc
00000340: be9a 0ebc 9349 51bb 3410 e3bc ed12 803d
00000350: c850 b9bc a5ba 273c 50ab 31bc 2579 773c
00000360: 3234 e33c a9a4 b0bd 26c1 9d3c 0cf5 d7bb
00000370: 5164 92bc 2ecf 943d 1a91 45bc c4b0 7f3d
00000380: 42fe a2bd 8634 a8bb f22b 9dba e371 46bc
00000390: 256d fcbb 9ce8 4d3c f29c cf3c 53b9 e43b
000003a0: cf57 e3b9 cc1e 89bc b3e6 963d 803d fabd
000003b0: 2d53 8b3d fba0 dabd 0265 be3d 253b 53bd
000003c0: 35f3 ee3b 7582 573d 8223 36bd e5d7 f9bc
000003d0: 83ff 753c 1057 253d 5bce 41bd 7bd5 843c
000003e0: ee3d 33bd 3aaa 493d b66d 75bd 1775 733d
000003f0: 1943 873d a5c2 65bd ba65 03bd c703 423b

conv2.bias f4 [10]
-0.087575324 -0.0012489371 0.0031449192 -0.0104599735 0.0028011226 -0.0031683699 -0.3654374 0.02548715
0.0006196188 -0.003533559
00000000: b15a b3bd 60b3 a3ba fd1a 4e3b 4f60 2bbc
00000010: 0a93 373b 6da4 4fbb 9c1a bbbe 6dca d03c
00000020: ea6d 223a 4893 67bb

conv3.weight f4 [1, 10, 3, 3]
-0.014781474 0.00063822675 -0.0006397558 -0.023840504 -0.020956492 -0.0075101224 -0.0010731375 -0.010778819
0.013181342 -0.00095048256 -0.0015903203 0.0015664594 -0.000969706 0.00037240464 0.0014974979 -0.0032649175
0.000128468 -1.9713732e-05 0.00067878194 -0.003249038 0.00044298713 0.00019434835 -0.0005563074 0.0005989972
0.00066195044 0.00031977735 0.00019509008 0.0021129732 0.001207022 0.00023688769 -0.00044609784 -0.0010492994
-0.0005401692 0.0029841734 -0.002225636 -0.0010215353 -0.0006004483 0.000936876 -0.0012069553 -0.0003830719
0.0020352171 0.0017295654 -0.0011315154 -0.002567902 -4.532492e-06 -0.0008898662 0.0007032314 -0.00033149103
1.9322619e-05 0.0019343544 0.0010724891 -0.0028806825 4.1687337e-05 0.00026025757 -0.0014281583 -0.016850723
-0.0102284895 0.013398824 0.013412477 -0.009194613 -0.014151911 0.0140944645 -0.01982101 0.0010856465
-0.00094210956 -0.002407641 -0.0016339546 -8.128893e-05 0.00085459853 0.0010437192 -0.00016096272 0.001775809
0.0015680722 -0.0017459161 -0.00040298782 -0.00035407936 -0.0044069993 -0.0022895413 0.005600861 0.0015344957
-0.0011865244 -0.002126248 8.207895e-05 0.00012300462 -3.5626417e-05 0.0009138115 0.0013411597 -0.0027610455
0.00069375715 0.0019083146
00000000: ff2d 72bc ac4e 273a 49b5 27ba 294d c3bc
00000010: f3ac abbc 7917 f6bb 85a8 8cba a599 30bc
00000020: 8ef6 573c ce29 79ba 4b72 d0ba a851 cd3a
00000030: de33 7eba 4e3f c339 b147 c43a 3af8 55bb
00000040: 5eb5 0639 eb5e a5b7 49f0 313a d0ed 54bb
00000050: ba40 e839 fdc9 4b39 28d5 11ba 0606 1d3a
00000060: be86 2d3a caa7 a739 1891 4c39 cf79 0a3b
00000070: f034 9e3a 0e65 7839 3de2 e9b9 a588 89ba
00000080: 249a 0dba 1f92 433b fadb 11bb 09e5 85ba
00000090: 6767 1dba af98 753a b332 9eba 0ad7 c8b9
000000a0: 4761 053b 96b2 e23a 5b4f 94ba 3f4a 28bb
000000b0: cf15 98b6 e945 69ba 0f59 383a f9cb adb9
000000c0: 0217 a237 2a8a fd3a c392 8c3a d5c9 3cbb
000000d0: 70d9 2e38 2e73 8839 0a31 bbba 870a 8abc
000000e0: 6595 27bc be86 5b3c 02c0 5b3c 01a5 16bc
000000f0: 6bdd 67bc 78ec 663c ac5f a2bc 404c 8e3a
00000100: e7f7 76ba 83c9 1dbb 6b2a d6ba a979 aab8
00000110: 2307 603a 68cd 883a 1ac8 28b9 43c2 e83a
00000120: c687 cd3a 39d7 e4ba 1c48 d3b9 baa3 b9b9
00000130: 9768 90bb 210c 16bb 6d87 b73b 2221 c93a
00000140: 2785 9bba 8658 0bbb cd21 ac38 cdfa 0039
00000150: 936d 15b8 da8c 6f3a dac9 af3a a8f2 34bb
00000160: 41dd 353a 6a20 fa3a

fc1.weight f4 [128, 784]
0.06351943 0.117214076 0.12512735 0.17831299 0.40570462 0.4368372 0.083298974 -0.1374422
0.02660901 -0.2760551 -0.1610384 -0.13262238 -0.21257089 -0.36978903 -0.46538568 -0.18377239
-0.19377652 0.0908707 0.14266504 -0.0226054 0.020908069 -0.04773229 -0.1889726 -0.13051403
0.083385706 0.08748457 0.31932884 -0.06911186 0.042977434 -0.0024732982 0.037864126 0.22462095
0.23575145 -0.009085317 -0.39167446 -0.3695544 -0.33388153 -0.06643774 0.12316651 -0.045052465
-0.235128 -0.37444553 -0.10669074 0.41145083 0.8841515 0.8539519 0.30359262 -0.018345576
-0.2688561 -0.4085351 -0.39843032 -0.48709726 -0.35348672 0.011275843 0.08572931 -0.13418493
0.081246674 0.022799907 0.29686046 0.5339128 0.38593912 -0.31930843 -0.48068723 -0.4614972
-0.32158375 -0.117465936 -0.18373051 -0.34374768 -0.34105313 -0.41095823 -0.20723678 0.36584815
0.8480715 1.0026783 0.6585294 0.2883051 -0.41691014 -0.60419154 -0.3828604 -0.5378708
-0.32873878 -0.353183 -0.1389919 -0.094535425 0.085089356 0.16204569 0.563519 0.40855578
-0.43270582 -0.55618525 -0.29434824 -0.32175186 0.15751934 0.108953826 -0.16349235 -0.19797039
-0.19565761 -0.26084176 -0.06386784 0.08290715 0.4635883 0.8130479 0.68165994 0.5820996
0.15261254 -0.27482826 -0.4046925 -0.42570344 -0.42935145 -0.39842412 -0.2534291 -0.20065188
0.3296458 0.37224412 0.50530195 -0.3134308 -0.36969796 -0.13409907 -0.027697321 0.20756908
0.02136717 -0.075755246 -0.04196064 0.16417632 0.11186504 -0.040355038 -0.17625205 -0.32062158
-0.09258693 0.23420191 0.49152714 0.7216013 0.72767377 0.35381112 -0.072002396 -0.2705514
-0.47376302 -0.29419792 -0.33232352 -0.30955142 0.23181438 0.27271757 -0.16474244 -0.470658
-0.04312818 0.071980946 0.29933038 0.06428499 0.06803837 0.010974293 0.14464392 0.029135773
0.06819696 0.05491473 -0.0155283725 -0.22635746 -0.37971735 -0.18826488 0.082468204 0.4260498
0.6072758 0.6307336 0.29285443 -0.10840617 -0.15473562 -0.32132766 -0.4991149 -0.23903622
0.13791382 0.032212604 -0.31895766 -0.16619903 0.029764494 0.2618383 0.18938303 0.16925336
0.17231241 0.20934044 0.018766822 -0.08095915 -0.18012439 -0.10893013 -0.04260008 -0.011289872
-0.23182341 -0.3387028 -0.3487681 0.07595234 0.41690165 0.6143661 0.46511337 0.35299817
0.21823208 -0.1745169 -0.3969785 -0.4198751 0.15975074 0.012213769 -0.0851124 -0.09345697
0.13871816 0.19343579 0.18121307 0.15086298 0.067258984 -0.008522338 -0.025388755 -0.09912647
-0.052538987 0.044746634 -0.09599877 -0.02799286 -0.08200772 -0.26656005 -0.39750174 -0.38317686
-0.044658322 0.2857378 0.7509633 0.4221318 0.38504487 0.15882844 -0.2935236 -0.7378889
0.0040229824 -0.07593291 -0.34019163 0.27295205 0.289675 0.052860793 0.22191907 -0.055877823
-0.0293756 -0.0955854 -0.1605613 0.020222586 0.028727295 0.014917607 0.086435035 -0.051197127
-0.03665739 -0.1494801 -0.3032995 -0.40282518 -0.3090431 -0.14586411 0.42707506 0.6508772
0.5610386 0.45918465 0.21855655 -0.8191775 -0.029859522 -0.33386844 0.026156412 0.34100696
00000000: 7a16 823d ef0d f03d 6221 003e ae97 363e
00000010: 84b8 cf3e 20a9 df3e a798 aa3d a6bd 0cbe
00000020: 23fb d93c 1857 8dbe 40e7 24be 29ce 07be
00000030: 2fac 59be fd54 bdbe 0847 eebe d42e 3cbe
00000040: 5a6d 46be 6b1a ba3d c916 123e f62e b9bc
00000050: 6647 ab3c ef82 43bd 0982 41be 78a5 05be
00000060: 20c6 aa3d 1c2b b33d 127f a33e 858a 8dbd
00000070: 1b09 303d 0f17 22bb 6a17 1b3d 0903 663e
00000080: d468 713e 95da 14bc 8e89 c8be 3c36 bdbe
00000090: 85f2 aabe 8310 88bd b93e fc3d ef88 38bd
000000a0: 65c5 70be 53b7 bfbe ad80 dabd afa9 d23e
000000b0: c157 623f 979c 5a3f 7e70 9b3e 7649 96bc
000000c0: 82a7 89be 832b d1be 0fff cbbe d064 f9be
000000d0: 36fc b4be 50be 383c d992 af3d c667 09be
000000e0: a864 a63d dfc6 ba3c 18fe 973e 82ae 083f
000000f0: d099 c53e 657c a3be a31c f6be 5c49 ecbe
00000100: a0a6 a4be fb91 f0bd da23 3cbe b2ff afbe
00000110: 849e aebe 1e69 d2be e135 54be 7350 bb3e
00000120: 371b 593f c357 803f 6295 283f ba9c 933e
00000130: 3f75 d5be 4cac 1abf 4706 c4be e7b1 09bf
00000140: 7350 a8be 67d4 b4be e553 0ebe ca9b c1bd
00000150: 5443 ae3d 4eef 253e c842 103f 392e d13e
00000160: 9e8b ddbe 2862 0ebf d0b4 96be a9bc a4be
00000170: c04c 213e 2f23 df3d 8a6a 27be c0b8 4abe
00000180: 785a 48be 0d8d 85be 24cd 82bd 39cb a93d
00000190: 725b ed3e e823 503f 4481 2e3f 7b04 153f
000001a0: 7646 1c3e 4ab6 8cbe db33 cfbe cdf5 d9be
000001b0: f4d3 dbbe 3ffe cbbe 76c1 81be b077 4dbe
000001c0: 56c7 a83e c896 be3e 785b 013f 007a a0be
000001d0: 0d49 bdbe 4451 09be 7ee5 e2bc fd8c 543e
000001e0: 340a af3c 9125 9bbd ecde 2bbd d61d 283e
000001f0: 8019 e53d 534b 25bd 6b7b 34be 8328 a4be
00000200: 379e bdbd a0d2 6f3e 72a9 fb3e ddba 383f
00000210: d448 3a3f bb26 b53e fe75 93bd b785 8abe
00000220: 1191 f2be 1ca1 96be 4f26 aabe 867d 9ebe
00000230: c060 6d3e a3a1 8b3e 3eb2 28be 16fa f0be
00000240: 2da7 30bd bf6a 933d d541 993e d9a7 833d
00000250: b357 8b3d 85cd 333c 891d 143e 25ae ee3c
00000260: d9aa 8b3d 45ee 603d b76a 7ebc 40ca 67be
00000270: 506a c2be 82c8 40be 17e5 a83d 3323 da3e
00000280: 6d76 1b3f c277 213f 04f1 953e 0e04 debd
00000290: 0473 1ebe 0f85 a4be fd8b ffbe e9c5 74be
000002a0: 4839 0d3e 5df1 033d 6b4e a3be 1430 2abe
000002b0: abd4 f33c ab0f 863e a0ed 413e c150 2d3e
000002c0: aa72 303e 575d 563e e1bc 993c e9cd a5bd
000002d0: 8772 38be c316 dfbd 6c7d 2ebd 28f9 38bc
000002e0: 1e63 6dbe 746a adbe bb91 b2be e78c 9b3d
000002f0: 2274 d53e 1947 1d3f 5723 ee3e 2dbc b43e
00000300: 3b78 5f3e 8fb4 32be c440 cbbe def9 d6be
00000310: b395 233e 431c 483c 694f aebd 5e66 bfbd
00000320: 220c 0e3e 0814 463e eb8f 393e d37b 1a3e
00000330: 14bf 893d 47a1 0bbc 14fc cfbc d202 cbbd
00000340: 1f33 57bd 3f48 373d 019b c4bd 4851 e5bc
00000350: aaf3 a7bd 8f7a 88be 5985 cbbe c22f c4be
00000360: a5eb 36bd 3a4c 923e 213f 403f a921 d83e
00000370: 9a24 c53e eca3 223e ba48 96be 49e6 3cbf
00000380: 39d3 833b b782 9bbd 992d aebe 5fc0 8b3e
00000390: 4850 943e 8f84 583d c13e 633e 25e0 64bd
000003a0: 19a5 f0bc 47c2 c3bd 2e6a 24be d6a9 a53c
000003b0: 8155 eb3c fb68 743c da04 b13d 14b4 51bd
000003c0: 0f26 16bd 5011 19be 124a 9bbe 1a3f cebe
000003d0: e63a 9ebe 675d 15be 95a9 da3e e39f 263f
000003e0: 3aa0 0f3f 401a eb3e 4acd 5f3e 9eb5 51bf
000003f0: f59b f4bc cef0 aabe f945 d63c 7798 ae3e

fc1.bias f4 [128]
-0.074067734 0.11848697 -0.03936842 -0.032822274 0.022053357 0.016005162 0.18859288 0.0047699986
-0.08527201 0.034454618 -0.016508488 0.011410372 -0.012658898 -0.123962246 0.06572783 0.057898633
-0.06608396 0.10976371 -0.22734773 -0.004479975 -0.0515903 0.0299792 -0.16562161 -0.03383886
0.12397632 0.0932783 -0.018950302 0.05763782 0.061246544 -0.04317466 0.13499878 0.052335467
-0.2137417 -0.07594253 0.0338068 0.002067095 0.27254817 0.10582644 -0.017735379 0.017773043
0.017265422 -0.10506985 -0.12591383 0.09642096 0.28915963 -0.021130534 -0.0030207317 0.58413893
0.09170789 0.011743198 0.011626459 -0.07099022 -0.092287585 0.13994725 0.05730005 0.015849479
0.09262468 0.020749522 0.041443836 0.009301337 -0.051276308 -0.050617725 -0.05446216 0.06388336
-0.08152921 0.053938385 0.044250943 -0.2594345 -0.07340778 0.0656667 -0.052930653 0.09126192
0.063858606 -0.01710163 0.028654499 -0.08366083 -0.019651538 0.099357344 -0.008588953 0.24981442
-0.03381072 -0.014945755 0.07515703 -0.07465415 -0.0063878885 0.21944566 0.053572804 -0.17098074
0.09253853 0.09899243 0.042547304 -0.018797068 -0.09353395 0.19399668 -0.026889589 0.4091064
0.16739625 -0.016055275 -0.093064696 0.1305406 0.44923994 -0.111143924 -0.100992195 0.008458268
0.12777223 -0.037940446 0.1558577 -0.019279871 -0.014743809 0.036106806 0.9420432 -0.0012081243
-0.022518337 -0.107108854 0.0235065 -0.025956089 0.016623316 -0.08763742 0.10242986 -0.024986465
0.10971023 -0.0056439764 -0.00096719747 0.16900861 -0.043644544 0.08332966 -0.02742581 -0.007831752
00000000: d3b0 97bd 4ca9 f23d c840 21bd a670 06bd
00000010: 3ea9 b43c 421d 833c 7e1e 413e a64d 9c3b
00000020: 17a3 aebd 4920 0d3d cf3c 87bc 92f2 3a3c
00000030: 4467 4fbc ebdf fdbd 509c 863d 1e27 6d3d
00000040: 0757 87bd cccb e03d d8cd 68be c1cc 92bb
00000050: 5a50 53bd f096 f53c b698 29be 9e9a 0abd
00000060: 4ce7 fd3d b108 bf3d aa3d 9bbc a215 6c3d
00000070: a8dd 7a3d ead7 30bd 1f3d 0a3e b75d 563d
00000080: 1bdf 5abe c287 9bbd 0079 0a3d 1978 073b
00000090: 6f8b 8b3e 88bb d83d c949 91bc c698 913c
000000a0: 3770 8d3c dd2e d7bd 8eef 00be 5a78 c53d
000000b0: bb0c 943e f119 adbc 78f7 45bb 218a 153f
000000c0: 59d1 bb3d 8b66 403c e77c 3e3c 5263 91bd
000000d0: 4601 bdbd 554e 0f3e 75b3 6a3d c4d6 813c
000000e0: 02b2 bd3d e7fa a93c 03c1 293d a364 183c
000000f0: 1b07 52bd 8854 4fbd b713 5fbd 47d5 823d
00000100: c9f8 a6bd 7fee 5c3d 7a40 353d 99d4 84be
00000110: d156 96bd 437c 863d d0cd 58bd 88e7 ba3d
00000120: 4dc8 823d b818 8cbc d7bc ea3c 5f56 abbd
00000130: 43fc a0bc dd7b cb3d aeb8 0cbc 5acf 7f3e
00000140: 1c7d 0abd 0adf 74bc eeeb 993d 46e4 98bd
00000150: 7e51 d1bb 5db6 603e 286f 5b3d 9315 2fbe
00000160: d784 bd3d 8bbc ca3d 1546 2e3d 4ffc 99bc
00000170: ba8e bfbd 11a7 463e 8e47 dcbc 6576 d13e
00000180: ec69 2b3e 5a86 83bc b498 bebd 6fac 053e
00000190: c702 e63e 6d9f e3bd ffd4 cebd 8c94 0a3c
000001a0: b9d6 023e 7167 1bbd 2999 1f3e d2f0 9dbc
000001b0: 0490 71bc bbe4 133d be29 713f ed59 9eba
000001c0: 6078 b8bc e35b dbbd b490 c03c dda1 d4bc
000001d0: 9f2d 883c 3f7b b3bd bfc6 d13d 6ab0 ccbc
000001e0: c2af e03d 1bf1 b8bb 868b 7dba 9810 2d3e
000001f0: 9fc4 32bd bea8 aa3d 18ac e0bc c050 00bc

fc2.weight f4 [100, 128]
0.14671896 -0.19363302 0.1702785 -0.0995687 -0.6081017 0.20513465 0.20492896 -0.28286353
-0.050396383 0.16444814 -0.13707191 -0.025864122 -0.5442302 0.05710871 0.024463607 0.26530042
0.06342739 -0.28850806 0.12518676 0.28515622 0.20057489 0.3093192 0.046388812 -0.24750347
-0.01451497 0.14420162 0.12442041 0.118479215 0.35342437 0.017218648 0.18131645 0.015500831
0.08933604 -0.06894813 -0.61396307 0.24036695 0.14701024 -0.10702979 -0.4664605 -0.15121505
0.426637 -0.11738851 0.04088675 0.12792443 -0.087646596 0.27446985 -0.2547082 0.23360927
0.0033142907 0.05773407 -0.06591451 -0.03936221 -0.030797139 0.17573571 0.13141991 0.013008741
-0.33340442 -0.026801612 -0.34052572 -0.059360795 -0.08805975 0.030199703 -0.08040824 -0.11290519
0.24660422 0.3158444 0.015122347 0.35532358 0.029415952 0.13824114 -0.14364104 0.14992295
0.4573666 0.054751556 0.1576211 0.0332753 0.10712912 0.069379635 -0.30919075 -0.021854319
0.24881047 0.10223456 -0.040558577 0.15225737 0.05537602 0.14348418 0.18959346 -0.26789477
-0.008071608 -0.06318334 -0.13016842 0.2588122 0.11017375 0.13481174 0.3041029 0.13640516
0.017747486 -0.29079035 -0.20768268 0.17134431 0.01626926 0.29448032 -0.35115084 -0.20146362
0.11242796 -0.17592621 -0.048805173 -0.036497563 0.1445603 0.047251027 0.37462658 0.0005171495
-0.27988827 -0.03515762 0.09509002 0.26331586 -0.124012046 -0.061237738 0.40821517 0.21177603
-0.045552135 -0.18661076 -0.3373996 0.00025802146 -0.10951633 -0.28608364 -0.030321067 -0.15715694
-0.17261592 -0.5464011 0.17034134 0.29900903 0.03365728 -0.3459803 -0.08297721 0.1987571
0.012991616 0.08598058 0.3697616 -0.39737597 -0.5200049 -0.44995406 -0.1618655 -0.013200379
0.21288358 -0.1004669 -0.15703368 -0.014454882 0.19466093 -0.30023536 0.048538473 -0.09258714
-0.4202221 -0.070558526 0.18886016 0.30307093 0.020453606 0.32351503 0.097709745 0.037914958
0.23233436 0.048502892 0.08528593 0.06122244 -0.29624748 0.10895983 -0.03562317 -0.31405035
0.08545842 -0.18642206 0.24260567 -0.021147333 -0.11653514 -0.012780569 -0.9165703 0.20810251
-0.15253687 0.050966963 -0.026594358 0.35500318 0.18186621 -0.13401963 0.08819183 0.29577434
0.18349108 0.3129148 -0.082968235 0.047221266 0.40588668 0.38462427 -0.15096909 0.09299216
-0.13716963 -0.18445697 -0.059809443 0.49770686 -0.14420785 0.06543432 0.41327006 0.03782699
-0.37987018 -0.30537742 0.13070607 0.24164675 -0.05968653 0.15101138 -0.38983238 -0.007671034
0.13169043 -0.051438123 -0.3641367 0.14117639 -0.15229313 -0.30721915 0.19350022 -0.4036069
-0.3087858 0.13778512 -0.0958433 0.18189885 0.06918877 0.5777995 0.09383436 0.1497206
0.122316174 -0.016745133 0.09245696 0.2871165 -0.15720917 0.10688228 -0.36531645 0.45349833
0.13324133 -0.039298985 -0.44003454 -0.36618358 0.047156237 -0.08152538 -0.10960441 0.18245545
-1.1942167 -0.14037868 0.15910682 0.06187913 -0.25185326 0.17709939 -0.3293389 -0.15720764
-0.21257207 0.32020476 -0.19064876 0.15282513 -0.04497382 -0.15988682 -0.5945473 -0.23649232
00000000: 7f3d 163e bc47 46be 7d5d 2e3e adea cbbd
00000010: 8eac 1bbf d10e 523e e6d8 513e 7dd3 90be
00000020: 706c 4ebd 1865 283e 945c 0cbe ffe0 d3bc
00000030: ac52 0bbf d3ea 693d e767 c83c 75d5 873e
00000040: 38e6 813d 54b7 93be f530 003e ffff 913e
00000050: 8163 4d3e 165f 9e3e 3202 3e3d 8d71 7dbe
00000060: 32d0 6dbc 97a9 133e 21d0 fe3d 3ba5 f23d
00000070: 0af4 b43e 1f0e 8d3c 05ab 393e 33f7 7d3c
00000080: d0f5 b63d ad34 8dbd af2c 1dbf c122 763e
00000090: da89 163e 6f32 dbbd e9d3 eebe 1ed8 1abe
000000a0: 2a70 da3e 6369 f0bd dd78 273d 9ffe 023e
000000b0: 0f80 b3bd 5087 8c3e 1d69 82be 4537 6f3e
000000c0: 9234 593b 8f7a 6c3d 30fe 86bd 453a 21bd
000000d0: 484a fcbc 10f4 333e f192 063e 9d22 553c
000000e0: fcb3 aabe 0e8f dbbc 6359 aebe 4e24 73bd
000000f0: ac58 b4bd 5e65 f73c 13ad a4bd d63a e7bd
00000100: d185 7c3e 5bb6 a13e b8c3 773c f9ec b53e
00000110: b9f9 f03c 168f 0d3e a316 13be 6785 193e
00000120: f42b ea3e 2b43 603d 6d67 213e ae4b 083d
00000130: 8366 db3d e916 8e3d 404e 9ebe d407 b3bc
00000140: 2cc8 7e3e 5a60 d13d c020 26bd 5be9 1b3e
00000150: f7d1 623d 84ed 123e ca24 423e 8129 89be
00000160: c73e 04bc 4466 81bd df4a 05be 0883 843e
00000170: c6a2 e13d 170c 0a3e 60b3 9b3e cbad 0b3e
00000180: 2d63 913c 79e2 94be c5aa 54be e274 2f3e
00000190: 1c47 853c 20c6 963e 0bca b3be 7b4c 4ebe
000001a0: a140 e63d 0026 34be efe7 47bd 787e 15bd
000001b0: 9e07 143e 4b8a 413d 0ecf bf3e 5191 073a
000001c0: 844d 8fbe 7001 10bd 8ebe c23d 56d1 863e
000001d0: 07fa fdbd 6cd4 7abd 9401 d13e d1db 583e
000001e0: e094 3abd e416 3fbe a4bf acbe 0e47 8739
000001f0: 194a e0bd 8e79 92be e363 f8bc c0ed 20be
00000200: 3ac2 30be f1e0 0bbf f66d 2e3e b617 993e
00000210: 37dc 093d 5424 b1be f5ef a9bd fb86 4b3e
00000220: c9da 543c 9616 b03d 6451 bd3e dd74 cbbe
00000230: 0b1f 05bf 6160 e6be 12c0 25be 6746 58bc
00000240: 27fe 593e 97c1 cdbd 70cd 20be 2bd4 6cbc
00000250: 3255 473e 73b8 99be 47d0 463d 549e bdbd
00000260: 5a27 d7be fd80 90bd 8f64 413e 1d2c 9b3e
00000270: 528e a73c c3a3 a53e 0c1c c83d b74c 1b3d
00000280: 0fe9 6d3e f8aa 463d 64aa ae3d 62c4 7a3d
00000290: c0ad 97be 5526 df3d 9ae9 11bd 35cb a0be
000002a0: d304 af3d 6de5 3ebe 9f6d 783e 2c3d adbc
000002b0: faa9 eebd 9765 51bc 5aa4 6abf d318 553e
000002c0: a032 1cbe bcc2 503d 69dc d9bc fac2 b53e
000002d0: 233b 3a3e 713c 09be eb9d b43d bc6f 973e
000002e0: 16e5 3b3e 5e36 a03e 40eb a9bd 166b 413d
000002f0: 61d0 cf3e 79ed c43e a497 1abe ac72 be3d
00000300: 3276 0cbe 4ae2 3cbe bffa 74bd 6fd3 fe3e
00000310: 39ab 13be 6e02 863d 2298 d33e 79f0 1a3d
00000320: 587e c2be 6e5a 9cbe d0d7 053e 3f72 773e
00000330: dd79 74bd baa2 1a3e 1c98 c7be 4c5d fbbb
00000340: dbd9 063e c8b0 52bd 2070 babe 8b90 103e
00000350: bbf2 1bbe d44b 9dbe ec24 463e 90a5 cebe
00000360: 2c19 9ebe 8b17 0d3e 7e49 c4bd b143 3a3e
00000370: d8b2 8d3d abea 133f 3b2c c03d 5b50 193e
00000380: e780 fa3d 172d 89bc 135a bd3d ef00 933e
00000390: 71fb 20be 19e5 da3d c20a bbbe ef30 e83e
000003a0: 6a70 083e f9f7 20bd 354c e1be 6a7c bbbe
000003b0: e626 413d c7f6 a6bd 4778 e0bd 9ad5 3a3e
000003c0: 18dc 98bf 6ebf 0fbe e6ec 223e f874 7d3d
000003d0: e9f2 80be 8b59 353e 1c9f a8be 0afb 20be
000003e0: 7eac 59be e1f1 a33e 6e39 43be 317e 1c3e
000003f0: 7836 38bd 5fb9 23be 4034 18bf 0b2b 72be

fc2.bias f4 [100]
0.36119333 0.46268028 0.46261385 -0.62678754 -0.32190558 -0.6185725 0.84904826 0.12944885
0.38128018 0.58097976 0.48850757 0.7870708 0.16411296 -0.06750343 -0.11381718 -0.32880723
-0.1869254 0.20031507 0.23977852 1.0093226 -0.44579852 0.21770146 0.00033924147 -0.60402477
0.16996446 0.58872473 0.044277515 0.6935119 -0.3169861 0.02652082 0.5446129 -0.40741217
0.51458055 0.47196454 -0.031013435 -0.35690266 0.47069758 0.76156163 0.3522998 0.16854478
0.2070904 0.069028 0.019434577 0.42456803 0.25638354 0.408201 0.4369819 0.60630447
0.43246368 0.94707996 0.5222815 -0.5941819 0.09047677 -0.17770498 0.172023 -0.26610237
-0.5164312 0.33637097 -0.84162724 0.6329098 -0.0009278013 0.79096425 0.66247344 0.4686874
0.6334773 0.9246844 0.58701015 0.6515754 0.87721676 -0.4556019 0.2670048 -0.015383263
1.0307615 0.020834258 0.24847074 -0.31800538 0.28911346 1.2135427 0.07711619 0.1843536
0.018585404 -0.3209797 0.56177735 0.23242703 0.08873163 0.61746746 0.08871602 0.5288185
-0.19097938 0.088778086 0.31910676 0.2907138 0.45003638 0.12452137 0.26023668 -0.97393537
0.51529056 0.31321013 0.5884981 0.52597183
00000000: 55ee b83e 6ee4 ec3e b9db ec3e 2675 20bf
00000010: cfd0 a4be c45a 1ebf 3a5b 593f 3d8e 043e
00000020: 2837 c33e 17bb 143f aa1d fa3e 797d 493f
00000030: 3a0d 283e 3d3f 8abd fb18 e9bd 6c59 a8be
00000040: 5f69 3fbe 651f 4d3e 8088 753e 7c31 813f
00000050: b43f e4be 22ed 5e3e 38dc b139 5ea1 1abf
00000060: 2a0b 2e3e aab6 163f 575c 353d ff89 313f
00000070: 014c a2be 3142 d93c c06b 0b3f 5498 d0be
00000080: 8dbb 033f 56a5 f13e e30f febc f2bb b6be
00000090: 46ff f03e b4f5 423f a460 b43e 0197 2c3e
000000a0: 810f 543e 8d5e 8d3d 4335 9f3c fb60 d93e
000000b0: b444 833e b9ff d03e 17bc df3e c536 1b3f
000000c0: e16b dd3e d573 723f 3eb4 053f 4e1c 18bf
000000d0: e34b b93d 4bf8 35be cc26 303e 923e 88be
000000e0: d634 04bf d138 ac3e e274 57bf 6006 223f
000000f0: b137 73ba a27c 4a3f dc97 293f cbf7 ef3e
00000100: 912b 223f 1eb8 6c3f 4c46 163f a5cd 263f
00000110: 4791 603f a744 e9be dab4 883e 150a 7cbc
00000120: feef 833f 9bac aa3c 1d6f 7e3e 9ad1 a2be
00000130: ae06 943e 5e55 9b3f 18ef 9d3d 31c7 3c3e
00000140: 6b40 983c 7457 a4be a4d0 0f3f 5a01 6e3e
00000150: eeb8 b53d 5912 1e3f bfb0 b53d a660 073f
00000160: 1990 43be 49d1 b53d f661 a33e 70d8 943e
00000170: 2b6b e63e 0f05 ff3d be3d 853e d453 79bf
00000180: 15ea 033f 145d a03e d0a7 163f 17a6 063f

fc3.weight f4 [64, 100]
-0.026582586 0.0694945 0.0004397546 -0.22997402 0.103795506 0.13604501 0.11622024 0.07634986
0.04509771 -0.19587623 0.25675693 0.18577343 -0.02275545 -0.10156047 0.041354563 0.056047097
-0.08516378 0.1953586 0.03457012 -0.08100046 -0.09489175 -0.12489983 -0.111381255 -0.12766224
0.12404194 0.15613145 0.19707844 -0.30842274 -0.5319241 0.029031599 -0.04949378 0.20903084
-0.030830147 0.052113283 0.021896789 -0.06951367 0.09781611 0.23571281 0.28126073 0.27656564
0.2106723 -0.0043087383 -0.055282917 0.030511647 -0.036945965 0.10141192 -0.2865613 -0.10837666
-0.04320137 0.16714951 0.037327465 -0.045946028 -0.09322969 -0.2512541 -0.30164382 -0.18454945
0.13133791 0.114734076 -0.43771252 0.10956321 -0.24293952 -0.022091515 -0.26859757 -0.09039673
0.44143742 0.22842325 -0.11351039 0.30890483 -0.105234884 -0.035853036 0.2495642 -0.19444074
0.34225935 -0.011170104 -0.091037124 -0.029411312 0.08764497 -0.119527884 -0.15703967 0.022247829
0.09908049 -0.1782592 -0.1363565 -0.056686364 -0.24591915 -0.15712328 -0.119778015 0.20458466
-0.07899688 -0.10589998 0.23290564 0.020125596 0.10253036 0.14985736 0.19403656 0.15500352
-0.31530064 0.42087328 0.09889474 0.30472398 0.016712023 -0.23072965 -0.4144321 0.08198417
-0.08865687 0.16456906 0.19067334 -0.15118602 0.15136836 0.36532447 -0.15658687 -0.10930021
0.063942194 -0.18143485 0.037776902 -0.07111166 0.2346374 0.022850852 -0.094076425 -0.08996006
0.16444153 -0.0014030684 0.13583489 -0.113918655 0.14509287 0.20045972 0.23179434 0.07830906
-0.2012311 0.34339502 -0.41497278 0.41972104 0.12792076 0.06468114 -0.24314766 0.08058419
0.07044105 -0.11486627 0.057908714 0.17112835 -0.056783624 -0.112680465 0.15069388 -0.010318111
0.03135091 -0.07381096 0.1282316 0.21668626 -0.15699306 0.05268471 0.17243446 -0.03016455
0.024496635 -0.02754992 -0.40682566 -0.085191995 0.08530427 -0.072417684 -0.1479734 0.22348274
0.3286733 0.026356582 -0.20799081 -0.061239555 0.012177965 -0.05769911 -0.16191466 -0.038866766
-0.060337484 0.0137627395 -0.037844356 0.18148497 -0.23551296 0.05473867 0.18689401 -0.06325656
0.14271484 -0.49314544 0.06921417 0.16080712 0.04927523 0.18218826 0.11517527 -0.120151326
0.10076041 -0.367779 0.31904292 -0.025288967 0.07236118 0.19367664 -0.33764082 0.18983912
-0.046490777 -0.0064324667 0.014712593 -0.46354607 0.09941683 -0.105016366 -0.28561893 0.504477
0.035364408 0.06610691 -0.14801991 0.012489257 0.109285556 0.06409177 0.12248424 0.19762631
0.054834723 -0.12613936 -0.29404584 0.5244909 -0.16274066 -0.17571011 0.0577175 -0.08103727
0.06435309 0.4805757 -0.037642274 0.13719274 0.25789708 -0.21698667 0.3474501 -0.13523823
0.1051867 -0.29726434 0.00702803 0.08354706 0.14314775 0.24956788 -0.11976698 -0.33093914
0.1762112 -0.20311822 0.4890453 0.17575745 0.043889113 0.03716468 -0.26798496 -0.21301028
0.0047190976 0.30904332 0.37834918 -0.120228454 0.10917881 -0.19148606 0.016450757 0.032453768
-0.00019933686 -0.22327363 -0.34431112 0.044022508 -0.058217514 0.03032101 0.42224923 0.089402966
00000000: b9c3 d9bc 2253 8e3d dd8e e639 4f7e 6bbe
00000010: bd92 d43d 624f 0b3e e104 ee3d 515d 9c3d
00000020: 60b8 383d c793 48be a575 833e 643b 3e3e
00000030: a369 babc f0fe cfbd 6763 293d a491 653d
00000040: 596a aebd 160c 483e 6699 0d3d 92e3 a5bd
00000050: 9b56 c2bd 7bcb ffbd db1b e4bd e4b9 02be
00000060: b309 fe3d ece0 1f3e eece 493e 96e9 9dbe
00000070: 2e2c 08bf add3 ed3c fdb9 4abd 2e0c 563e
00000080: 818f fcbc bd74 553d e560 b33c 2f5d 8ebd
00000090: d053 c83d b35e 713e 6801 903e 039a 8d3e
000000a0: 7bba 573e 5130 8dbb 5770 62bd 90f3 f93c
000000b0: a754 17bd 0db1 cf3d 2ab8 92be 95f4 ddbd
000000c0: ebf3 30bd 3e29 2b3e afe4 183d e731 3cbd
000000d0: 35ef bebd 61a4 80be 0f71 9abe 88fa 3cbe
000000e0: 727d 063e b3f9 ea3d db1b e0be ad62 e03d
000000f0: 23c5 78be 44f9 b4bc 9f85 89be ec21 b9bd
00000100: 1604 e23e c9e7 693e 2378 e8bd c628 9e3e
00000110: 6385 d7bd a2da 12bd c28d 7f3e 791b 47be
00000120: 9e3c af3e d002 37bc ac71 babd feef f0bc
00000130: 357f b33d 09cb f4bd 02cf 20be 1441 b63c
00000140: b6ea ca3d 9489 36be 0aa1 0bbe f62f 68bd
00000150: 3bd2 7bbe ede4 20be 2d4e f5bd a47e 513e
00000160: 1ec9 a1bd 17e2 d8bd d17e 6e3e 6fde a43c
00000170: 70fb d13d 3574 193e 85b1 463e 3eb9 1e3e
00000180: 166f a1be b47c d73e 5389 ca3d c804 9c3e
00000190: a7e7 883c 6544 6cbe 7230 d4be 51e7 a73d
000001a0: bc91 b5bd cb84 283e df3f 433e 82d0 1abe
000001b0: 4f00 1b3e cf0b bb3e 4f58 20be cad8 dfbd
000001c0: 20f4 823d 0fca 39be f4bb 1a3d fda2 91bd
000001d0: c944 703e b631 bb3c 24ab c0bd fb3c b8bd
000001e0: 5c63 283e 2ae7 b7ba 4d18 0b3e 2f4e e9bd
000001f0: 3a93 143e 5045 4d3e 7f5b 6d3e 8060 a03d
00000200: 870f 4ebe 79d1 af3e 5077 d4be ade5 d63e
00000210: a9fd 023e 8c77 843d b3fb 78be 5309 a53d
00000220: 6643 903d 023f ebbd b031 6d3d 453c 2f3e
00000230: f295 68bd 04c5 e6bd 7f4f 1a3e 4b0d 29bc
00000240: d069 003d 332a 97bd 254f 033e 01e3 5d3e
00000250: cac2 20be eccb 573d a992 303e a51b f7bc
00000260: 2bad c83c 5fb0 e1bc 744b d0be 2479 aebd
00000270: 01b4 ae3d b94f 94bd 5786 17be a9d8 643e
00000280: de47 a83e c2e9 d73c 8bfb 54be 54d6 7abd
00000290: 1686 473c e755 6cbd f5cc 25be c232 1fbd
000002a0: 7024 77bd 1d7d 613c af02 1bbd 32d7 393e
000002b0: 4f2a 71be a835 603d 2561 3f3e a88c 81bd
000002c0: d723 123e 8f7d fcbe 29c0 8d3d 9faa 243e
000002d0: d3d4 493d 8f8f 3a3e 03e1 eb3d e611 f6bd
000002e0: 795b ce3d 874d bcbe 9859 a33e cf2a cfbc
000002f0: 1932 943d 2b53 463e 42df acbe 3065 423e
00000300: 1d6d 3ebd 71c7 d2bb 160d 713c e955 edbe
00000310: 0d9b cb3d d212 d7bd a53c 92be 6825 013f
00000320: 45da 103d 0f63 873d 8892 17be be9f 4c3c
00000330: 1bd1 df3d 8c42 833d 04d9 fa3d 8d5e 4a3e
00000340: 609a 603d ad2a 01be 2d8d 96be 0945 063f
00000350: 7da5 26be 5aed 33be 2f69 6c3d def6 a5bd
00000360: 8ecb 833d 050e f63e c92e 1abd 417c 0c3e
00000370: 160b 843e c131 5ebe fbe4 b13e e47b 0abe
00000380: 206c d73d 0833 98be 644b e63b b91a ab3d
00000390: 5395 123e b98e 7f3e 6448 f5bd db70 a9be
000003a0: b570 343e 39fe 4fbe 2564 fa3e c3f9 333e
000003b0: 12c5 333d fe39 183d 5335 89be 5e1f 5abe
000003c0: a9a2 9a3b ed3a 9e3e fcb6 c13e 563a f6bd
000003d0: 2499 df3d ec14 44be bdc3 863c 3eee 043d
000003e0: 1505 51b9 d8a1 64be 8c49 b0be f250 343d
000003f0: 7d75 6ebd c463 f83c 0d31 d83e e718 b73d

fc3.bias f4 [64]
0.97647476 -0.34888116 0.2048927 0.060748234 0.572052 0.51897794 0.12364313 0.9434816
0.19864468 -0.0120909875 -0.066077255 0.26237485 0.5307658 0.5276608 0.3612901 0.86167383
0.2285105 -0.014538799 0.12225279 0.84131426 0.018653106 0.5466688 0.58138025 1.2935375
-0.4505219 0.16468884 -0.031948775 -0.10686433 -0.26670602 0.3588324 -0.058244698 0.49454737
-0.22227295 0.53617454 0.5296639 0.26768216 -0.21851629 0.25085735 0.48162496 0.18011874
-0.6067515 0.09211977 -0.5884106 0.38516885 0.20988885 0.7568292 0.48703673 -0.2680318
-0.054687805 -0.04044704 0.25922987 -0.19194093 0.1186019 -0.0278468 -0.09408065 0.10455823
-0.008743707 -0.12303379 0.17471036 0.23405725 0.5570811 0.5522951 -0.6806671 0.034018196
00000000: 40fa 793f 8da0 b2be 64cf 513e 24d3 783d
00000010: 0072 123f bddb 043f 9c38 fd3d 0388 713f
00000020: 8369 4b3e 4719 46bc 8353 87bd ff55 863e
00000030: 44e0 073f c714 073f 04fb b83e a896 5c3f
00000040: a8fe 693e 2534 6ebc ac5f fa3d 5f60 573f
00000050: 66ce 983c 7df2 0b3f 56d5 143f a392 a53f
00000060: ceaa e6be 31a4 283e b8dc 02bd b0db dabd
00000070: b18d 88be e1b8 b73e fe91 6ebd 5035 fd3e
00000080: 859b 63be bc42 093f 0e98 073f a30d 893e
00000090: bcc2 5fbe 6070 803e 8c97 f63e 0c71 383e
000000a0: 1154 1bbf 4aa9 bc3d 14a2 16bf da34 c53e
000000b0: 1aed 563e 8fbf 413f e15c f93e 773b 89be
000000c0: 5200 60bd ccab 25bd c7b9 843e 2a8c 44be
000000d0: 8ee5 f23d f91e e4bc 5bad c0bd a022 d63d
000000e0: c441 0fbc 24f9 fbbd 46e7 323e b4ac 6f3e
000000f0: de9c 0e3f 3663 0d3f 3340 2ebf aa56 0b3d

logits.weight f4 [345, 64]
-0.087515265 0.18733321 -0.32420248 0.053151045 -0.111684486 -0.08454902 0.11200292 -0.057975374
-0.06782064 0.08000783 0.04759597 -0.3157841 0.06782172 0.11823315 -0.2567848 0.052703455
-0.46793348 0.016278142 0.05923046 -0.11762011 0.07982378 0.10770423 -0.17654529 0.010470665
-0.37441427 0.19407894 -0.21199901 -0.09467102 -0.015859647 -0.251796 0.008341039 -0.28903443
-0.20355971 0.23826116 -0.18268615 0.04142997 -0.15552025 0.27946982 0.07743376 -0.38774624
-0.069564834 -0.13058193 -0.106655985 -0.028474312 -0.028774241 -0.2215844 -0.21809784 -0.41548046
0.22511618 0.036106713 -0.003993585 -0.055023756 0.063903786 0.14581782 -0.06604929 0.16951948
-0.16245136 -0.0758647 -0.2061404 -0.14322397 -0.273 0.0022565867 -0.08430859 -0.026819376
0.015618993 0.24402921 -0.4310003 -0.50456053 -0.4923124 0.33728877 0.3230295 0.22560714
-0.085495315 -0.068439074 -0.13899058 -0.23986696 0.2000567 0.2853958 -0.29934 0.0088325525
-0.89782816 0.16946463 -0.25136888 0.15735643 0.33612135 0.30851597 -0.075070195 0.25503653
-0.4410652 -0.023905465 0.007954189 0.067250036 0.047924865 -0.32954478 -0.61880755 -0.3366576
-0.105347194 0.3404285 -0.027269619 -0.22946899 -0.3207403 0.07421838 0.0067057214 -0.6723338
0.13822073 -0.013204398 -0.28360802 0.059042286 -0.15045406 -0.6755345 -0.010718637 -0.50101686
0.2657983 -0.36255598 -0.3060595 -0.13353215 -0.3567727 0.041767277 -0.270882 -0.08830992
-0.038148157 -0.1648577 -0.1273853 -0.28290895 -0.028342105 0.16853148 -0.12842977 -0.18827595
-0.13975777 -0.2001352 0.07037904 0.088953994 -0.11054348 -0.22883452 0.14594604 0.0016189419
-0.26242545 -0.4495699 -0.11662771 -0.1339415 -0.2948185 0.40696073 0.0007685467 -0.026151773
-0.92142755 0.2894016 -0.36401102 0.086814806 -0.3406737 -0.37996712 -0.33685604 -0.13232289
-0.39840764 -0.31093824 -0.14392619 -0.15254349 -0.06195985 -0.2469134 -0.000978582 -0.22175
-0.596302 -0.56302285 -0.047366906 -0.08872135 -0.06110619 -0.20774357 0.12898132 0.16400127
-0.25858092 0.2038958 -0.17366044 -0.3463012 0.2255284 0.41400823 -0.047251843 0.047086023
-0.18201362 0.23028521 -0.07813338 -0.19350363 0.0076901168 0.09542104 -0.20679022 0.46538007
-0.2830727 -0.08883446 0.2449759 -0.25101316 0.35308763 -0.43245283 -0.00028599237 0.058952343
-0.3228434 0.51324683 0.14384668 -0.05971215 -0.27432647 0.11538506 -0.2663867 -0.12636423
0.040270712 -0.61541057 0.041314 0.2567375 -0.16854636 -0.04612682 0.03440413 -0.03438726
-0.588057 -0.08620454 -0.058868874 0.254083 0.34663114 -0.48610002 -0.60393023 -0.11333769
-0.3860874 -0.55036837 0.033103917 -0.0022574977 0.024387335 -0.035048936 -0.18425316 -0.25176278
-0.32891205 -0.11335381 -0.46321973 -0.098760955 0.1153493 -0.3328298 -0.105443336 0.22578588
-0.31784526 0.10024247 -0.1331961 -0.13593678 0.037714526 -0.06547396 -0.648875 0.028506799
0.040413193 -0.34088048 -0.28029993 0.30221677 -0.32156447 0.1418412 -0.001097379 -0.11764133
-0.49622533 -0.14033903 -0.31768245 -0.34283128 0.31199026 0.27813163 0.24050789 -0.11523821
00000000: 343b b3bd 47d4 3f3e defd a5be e9b4 593d
00000010: d6ba e4bd 0928 adbd c961 e53d 9677 6dbd
00000020: 8ce5 8abd 25db a33d fef3 423d 74ae a1be
00000030: 1de6 8a3d 3924 f23d 4c79 83be 94df 573d
00000040: fa94 efbe bd59 853c a49b 723d d0e2 f0bd
00000050: a67a a33d 0994 dc3d 4ac8 34be 278d 2b3c
00000060: 3ab3 bfbe a1bc 463e 4516 59be e1e2 c1bd
00000070: 17ec 81bc 68eb 80be daa8 083c 52fc 93be
00000080: f571 50be bcfa 733e 1412 3bbe 79b2 293d
00000090: b340 1fbe ab16 8f3e 9795 9e3d ad86 c6be
000000a0: 0278 8ebd 45b7 05be 746e dabd f642 e9bc
000000b0: f5b7 ebbc 05e7 62be 0a55 5fbe dbb9 d4be
000000c0: db84 663e a2e4 133d 9edc 82bb 9760 61bd
000000d0: fddf 823d 4451 153e da44 87bd 8496 2d3e
000000e0: a659 26be f45e 9bbd 7816 53be 4ea9 12be
000000f0: a8c6 8bbe 3ee3 133b fba9 acbd 4fb4 dbbc
00000100: cee6 7f3c cbe2 793e 12ac dcbe e12a 01bf
00000110: 5f10 fcbe 1db1 ac3e 1f64 a53e 8f05 673e
00000120: 2b18 afbd c929 8cbd 8c53 0ebe af9f 75be
00000130: aadb 4c3e 661f 923e 1843 99be 69b6 103c
00000140: 11d8 65bf 2388 2d3e 6cb3 80be 0b22 213e
00000150: 1918 ac3e cef5 9d3e 67be 99bd 2694 823e
00000160: 4cd3 e1be 65d5 c3bc 4952 023c 63ba 893d
00000170: dd4c 443d 18ba a8be 2c6a 1ebf 635e acbe
00000180: 45c0 d7bd a54c ae3e 8964 dfbc ebf9 6abe
00000190: 1338 a4be ceff 973d abbb db3b 111e 2cbf
000001a0: bc89 0d3e 4257 58bc 1235 91be 53d6 713d
000001b0: a110 1abe d4ef 2cbf 399d 2fbc a442 00bf
000001c0: b716 883e f0a0 b9be d5b3 9cbe a7bc 08be
000001d0: e9aa b6be 2a14 2b3d 0cb1 8abe d5db b4bd
000001e0: 3e41 1cbd 75d0 28be 4b71 02be 71d9 90be
000001f0: b42d e8bc 8493 2c3e 1883 03be 69cb 40be
00000200: a91c 0fbe 3ef0 4cbe e322 903d 832d b63d
00000210: 9f64 e2bd 9953 6abe e172 153e ad32 d43a
00000220: a15c 86be 072e e6be 82da eebd f627 09be
00000230: 73f2 96be 285d d03e 4c78 493a 3e3c d6bc
00000240: ade2 6bbf 722c 943e a75f babe f6cb b13d
00000250: c96c aebe 0d8b c2be 6578 acbe a77f 07be
00000260: 16fc cbbe 4c33 9fbe 6361 13be 5c34 1cbe
00000270: 9dc9 7dbd ded6 7cbe c343 80ba 6f12 63be
00000280: 3fa7 18bf 4422 10bf cd03 42bd 8ab3 b5bd
00000290: 7c4a 7abd bbba 54be ae13 043e f3ef 273e
000002a0: b864 84be 10ca 503e 0bd4 31be 644e b1be
000002b0: ebf0 663e e3f8 d33e 268b 41bd 46dd 403d
000002c0: c761 3abe e3cf 6b3e 6504 a0bd d125 46be
000002d0: 60fd fb3b 1b6c c33d d1c0 53be 4c46 ee3e
000002e0: e8ee 90be d7ee b5bd f6da 7a3e cc84 80be
000002f0: e7c7 b43e 756a ddbe 3ff1 95b9 0378 713d
00000300: bb4b a5be 2564 033f 8b4c 133e ba94 74bd
00000310: 8574 8cbe 014f ec3d d663 88be a065 01be
00000320: e7f2 243d 8c8b 1dbf de38 293d 1973 833e
00000330: 6b97 2cbe 7aef 3cbd 58eb 0c3d a8d9 0cbd
00000340: e78a 16bf 028c b0bd 7d20 71bd 2b17 823e
00000350: a379 b13e 1ae2 f8be 2c9b 1abf 971d e8bd
00000360: 3fad c5be f1e4 0cbf f997 073d 87f2 13bb
00000370: f3c7 c73c 798f 0fbd dcac 3cbe 0de7 80be
00000380: 2967 a8be 0b26 e8bd 232b edbe 2f43 cabd
00000390: 413c ec3d ab68 aabe adf2 d7bd 6a34 673e
000003a0: 9dbc a2be ed4b cd3d 8f64 08be 0333 0bbe
000003b0: 8c7a 1a3d 3617 86bd ac1c 26bf 1787 e93c
000003c0: 4e88 253d e387 aebe 7983 8fbe 28bc 9a3e
000003d0: 19a4 a4be d23e 113e eed5 8fba f0ed f0bd
000003e0: 3f11 febe 09b5 0fbe 46a7 a2be 9587 afbe
000003f0: 30bd 9f3e 4567 8e3e b347 763e 0302 ecbd

logits.bias f4 [345]
0.6655551 0.40803486 0.20936161 0.4310063 0.3445513 0.7121388 0.31368667 0.07218523
0.32578558 -0.4099044 -1.309071 -0.57800233 0.48236808 -0.693629 0.41920963 0.31425565
-1.4563541 0.12777255 0.33490744 0.48303264 0.4206604 0.029723797 0.43282667 0.23764344
-0.3010117 0.01920481 0.8482141 0.018517433 0.5191987 0.58937824 0.7855092 0.21271773
0.41751423 0.28302643 0.25936645 0.39766407 -0.6081811 0.028352674 0.32108068 0.13812926
0.8218203 0.15975848 -0.06376364 -0.41385815 -1.2818627 -0.07048869 0.89437115 0.40431544
0.6619248 0.7840608 -0.3841006 0.57495093 0.3152034 0.4963746 -0.5513228 0.46174207
1.1322794 0.7211578 -1.6645472 0.21901374 0.07456531 0.5895676 -1.061666 -0.050170153
0.86712056 0.5206947 -0.0943 -0.40142924 -0.2991239 -0.08159723 -0.08106227 0.24472946
-0.7011463 0.24911228 0.573628 0.34591457 0.34128323 0.4661112 0.5768341 0.37263912
0.58477736 0.4438082 0.28198376 -0.85716856 -0.023388023 0.14625917 0.53267217 0.08230231
-0.34052598 0.5564493 0.1832695 -0.0072960835 -0.12299649 0.7013709 -0.19008608 0.7007418
0.36853558 -0.310732 0.40468422 -0.2049961 0.23436415 -0.46438012 0.3514877 0.2802872
0.54949266 0.32250303 0.9670021 -0.13443202 0.41403696 -0.33777738 -0.3305137 0.3223373
-0.7441307 -0.37726337 0.74211365 0.50315225 0.46361303 -1.2113903 0.17103967 -0.13285586
-1.1200558 -0.078092866 0.21943803 -0.26758534 -1.2117898 0.27341127 0.18371734 -0.017552448
0.48113298 -1.187425 -0.5350671 -0.8969838 0.23819211 0.34536147 -0.54651296 0.6320089
-1.1428508 0.054312598 0.02044423 0.25643507 -0.013134929 0.9629435 0.5507721 -0.0164819
0.1335777 0.19898857 -0.7164477 -0.050038557 0.091109686 -1.0706758 0.07591068 0.42238417
-0.53875494 0.13393365 0.2535404 0.37676156 -1.0623636 0.27982676 0.12557195 -0.49213666
-0.70960426 0.50691354 -0.37512255 -1.1690485 -0.50581104 -0.048751637 0.691849 -0.49186006
-0.73312056 -0.8866992 -0.598141 -0.19163874 -0.474389 -0.41475737 1.0476295 -0.7492378
-0.051285353 -1.4492894 -1.4068038 0.84490854 -1.0320274 -0.74991083 0.23288307 -0.5312823
-1.4661175 0.79018474 0.43844208 -0.4066489 0.85669786 0.6316427 -0.2507964 0.30540723
-0.04796764 0.016437912 0.36140206 -0.8425755 -1.2517211 -0.53205913 -0.1004664 0.29321444
0.32148668 0.77136594 0.43012172 0.25530005 -0.07083561 0.08698067 -1.6460414 -0.62302494
0.45473203 -0.16636208 -0.17866474 -0.75965875 -0.2988683 0.5611395 -0.3785095 -0.44234005
0.17053051 -1.547715 -0.2366621 0.1171386 0.4995105 0.6370304 0.454648 0.3388583
-0.16414705 0.20001236 -0.21474269 0.29775968 0.5836199 0.52761894 -1.330531 0.48787358
0.26763594 0.33158782 0.52499825 0.056804996 0.44638044 0.69217366 -0.17111161 0.16357127
-0.42615604 -0.35613438 0.21350698 0.06771111 -0.19227906 0.35198605 0.22664885 0.3309952
0.7210484 -0.0046886066 -0.34883964 0.6126952 -0.0693833 -0.0052052885 -1.0179561 0.65583026
00000000: d261 2a3f f2e9 d03e e462 563e dcac dc3e
00000010: 0769 b03e ba4e 363f 8a9b a03e dad5 933d
00000020: 5ecd a63e fdde d1be a38f a7bf f6f7 13bf
00000030: f3f8 f63e ac91 31bf a5a2 d63e 1ee6 a03e
00000040: d069 babf cfd6 023e fd78 ab3e 0e50 f73e
00000050: cd60 d73e 527f f33c 759b dd3e cd58 733e
00000060: 351e 9abe 6853 9d3c 8f24 593f dfb1 973c
00000070: 35ea 043f 7ee1 163f 2217 493f add2 593e
00000080: 6dc4 d53e d7e8 903e aecb 843e a09a cb3e
00000090: c2b1 1bbf de43 e83c b064 a43e c271 0d3e
000000a0: d162 523f ba97 233e 8396 82bd 37e5 d3be
000000b0: 1414 a4bf 605c 90bd 82f5 643f 6f02 cf3e
000000c0: e773 293f 35b8 483f d5a8 c4be fc2f 133f
000000d0: 5762 a13e d024 fe3e 7e23 0dbf 7569 ec3e
000000e0: 88ee 903f cc9d 383f e20f d5bf 2345 603e
000000f0: b2b5 983d e7ed 163f ace4 87bf 387f 4dbd
00000100: 9dfb 5d3f 3f4c 053f 5c20 c1bd 2288 cdbe
00000110: c526 99be 731c a7bd fa03 a6bd 5c9a 7a3e
00000120: 537e 33bf 4a17 7f3e 49d9 123f b71b b13e
00000130: adbc ae3e 21a6 ee3e 66ab 133f 8eca be3e
00000140: f8b3 153f d43a e33e 2d60 903e 666f 5bbf
00000150: 3d98 bfbc f7c4 153e 345d 083f 1d8e a83d
00000160: 6c59 aebe 7673 0e3f 00ab 3b3e fc13 efbb
00000170: 95e5 fbbd 0b8d 333f eda5 42be d163 333f
00000180: b2b0 bc3e 4418 9fbe c532 cf3e 7fea 51be
00000190: 28fd 6f3e 3bc3 edbe 32f6 b33e ce81 8f3e
000001a0: 8dab 0c3f 1e1f a53e 738d 773f 8ca8 09be
000001b0: a7fc d33e 28f1 acbe 1739 a9be 6509 a53e
000001c0: 597f 3ebf aa28 c1be 29fb 3d3f 96ce 003f
000001d0: b05e ed3e d60e 9bbf 0625 2f3e 5e0b 08be
000001e0: fd5d 8fbf 27ef 9fbd 5db4 603e f200 89be
000001f0: ee1b 9bbf 90fc 8b3e 6620 3c3e 27ca 8fbc
00000200: 1057 f63e 8bfd 97bf 28fa 08bf bba0 65bf
00000210: a2e8 733e 38d3 b03e 46e8 0bbf 56cb 213f
00000220: ef48 92bf e376 5e3d a87a a73c 754b 833e
00000230: e333 57bc 7783 763f 66ff 0c3f 0d05 87bc
00000240: 98c8 083e a9c3 4b3e 1e69 37bf 3bf5 4cbd
00000250: b797 ba3d e80b 89bf 0f77 9b3d bd42 d83e
00000260: d8eb 09bf e725 093e 0cd0 813e e4e6 c03e
00000270: 88fb 87bf 7445 8f3e ef95 003e 56f9 fbbe
00000280: a0a8 35bf 16c5 013f 1010 c0be 62a3 95bf
00000290: d57c 01bf ccaf 47bd 041d 313f 15d5 fbbe
000002a0: caad 3bbf b8fe 62bf c51f 19bf f23c 44be
000002b0: 1de3 f2be 145b d4be b918 863f 0cce 3fbf
000002c0: 9710 52bd 5182 b9bf 2612 b4bf ed4b 583f
000002d0: 7919 84bf 28fa 3fbf e678 6e3e 1e02 08bf
000002e0: bda9 bbbf 8c49 4a3f 7b7b e03e 4934 d0be
000002f0: 8d50 5b3f 56b3 213f 6368 80be 565e 9c3e
00000300: b779 44bd cda8 863c b109 b93e 07b3 57bf
00000310: 6638 a0bf 0735 08bf 54c1 cdbd 3420 963e
00000320: e799 a43e 3d78 453f ea38 dc3e b0b6 823e
00000330: 4312 91bd ec22 b23d 7cb1 d2bf 907e 1fbf
00000340: a3d2 e83e d25a 2abe e4f3 36be ff78 42bf
00000350: 4405 99be d7a6 0f3f ffcb c1be 657a e2be
00000360: 8d9f 2e3e 861b c6bf 8d57 72be 5de6 ef3d
00000370: d7bf ff3e 6d14 233f 9fc7 e83e d67e ad3e
00000380: 2a16 28be 0ad0 4c3e 82e5 5bbe f573 983e
00000390: 1d68 153f 0912 073f d74e aabf 91ca f93e
000003a0: 9407 893e e1c5 a93e 4966 063f 5bac 683d
000003b0: fa8b e43e 4b32 313f e237 2fbe 3a7f 273e
000003c0: 2031 dabe 3f57 b6be 93a1 5a3e 1fac 8a3d
000003d0: cde4 44be 8437 b43e a316 683e 3478 a93e
000003e0: a196 383f e2a2 99bb 1c9b b2be 98d9 1c3f
000003f0: d518 8ebd 2091 aabb 634c 82bf 7ee4 273f
